2023-03-16 16:42:32,264 - INFO - root - Hello! This is Tong Ye's Transformer!
2023-03-16 16:42:35,763 - INFO - model - Build Model...
2023-03-16 16:42:36,333 - DEBUG - model - Model(
	Transformer_encoder=TransformerEncoder(
  (layers): ModuleList(
    (0): TransformerEncoderLayer(
      (layer_norm): LayerNorm((512,), eps=1e-05, elementwise_affine=True)
      (src_src_attenion): MultiHeadedAttention(
        (key_project): Linear(in_features=512, out_features=512, bias=True)
        (query_project): Linear(in_features=512, out_features=512, bias=True)
        (value_project): Linear(in_features=512, out_features=512, bias=True)
        (dropout): Dropout(p=0.2, inplace=False)
        (softmax): Softmax(dim=-1)
        (output_layer): Linear(in_features=512, out_features=512, bias=True)
      )
      (feed_forward): PositionwiseFeedForward(
        (layer_norm): LayerNorm((512,), eps=1e-05, elementwise_affine=True)
        (pwff): Sequential(
          (0): Linear(in_features=512, out_features=2048, bias=True)
          (1): ReLU()
          (2): Dropout(p=0.2, inplace=False)
          (3): Linear(in_features=2048, out_features=512, bias=True)
          (4): Dropout(p=0.2, inplace=False)
        )
      )
      (dropout): Dropout(p=0.2, inplace=False)
    )
    (1): TransformerEncoderLayer(
      (layer_norm): LayerNorm((512,), eps=1e-05, elementwise_affine=True)
      (src_src_attenion): MultiHeadedAttention(
        (key_project): Linear(in_features=512, out_features=512, bias=True)
        (query_project): Linear(in_features=512, out_features=512, bias=True)
        (value_project): Linear(in_features=512, out_features=512, bias=True)
        (dropout): Dropout(p=0.2, inplace=False)
        (softmax): Softmax(dim=-1)
        (output_layer): Linear(in_features=512, out_features=512, bias=True)
      )
      (feed_forward): PositionwiseFeedForward(
        (layer_norm): LayerNorm((512,), eps=1e-05, elementwise_affine=True)
        (pwff): Sequential(
          (0): Linear(in_features=512, out_features=2048, bias=True)
          (1): ReLU()
          (2): Dropout(p=0.2, inplace=False)
          (3): Linear(in_features=2048, out_features=512, bias=True)
          (4): Dropout(p=0.2, inplace=False)
        )
      )
      (dropout): Dropout(p=0.2, inplace=False)
    )
    (2): TransformerEncoderLayer(
      (layer_norm): LayerNorm((512,), eps=1e-05, elementwise_affine=True)
      (src_src_attenion): MultiHeadedAttention(
        (key_project): Linear(in_features=512, out_features=512, bias=True)
        (query_project): Linear(in_features=512, out_features=512, bias=True)
        (value_project): Linear(in_features=512, out_features=512, bias=True)
        (dropout): Dropout(p=0.2, inplace=False)
        (softmax): Softmax(dim=-1)
        (output_layer): Linear(in_features=512, out_features=512, bias=True)
      )
      (feed_forward): PositionwiseFeedForward(
        (layer_norm): LayerNorm((512,), eps=1e-05, elementwise_affine=True)
        (pwff): Sequential(
          (0): Linear(in_features=512, out_features=2048, bias=True)
          (1): ReLU()
          (2): Dropout(p=0.2, inplace=False)
          (3): Linear(in_features=2048, out_features=512, bias=True)
          (4): Dropout(p=0.2, inplace=False)
        )
      )
      (dropout): Dropout(p=0.2, inplace=False)
    )
    (3): TransformerEncoderLayer(
      (layer_norm): LayerNorm((512,), eps=1e-05, elementwise_affine=True)
      (src_src_attenion): MultiHeadedAttention(
        (key_project): Linear(in_features=512, out_features=512, bias=True)
        (query_project): Linear(in_features=512, out_features=512, bias=True)
        (value_project): Linear(in_features=512, out_features=512, bias=True)
        (dropout): Dropout(p=0.2, inplace=False)
        (softmax): Softmax(dim=-1)
        (output_layer): Linear(in_features=512, out_features=512, bias=True)
      )
      (feed_forward): PositionwiseFeedForward(
        (layer_norm): LayerNorm((512,), eps=1e-05, elementwise_affine=True)
        (pwff): Sequential(
          (0): Linear(in_features=512, out_features=2048, bias=True)
          (1): ReLU()
          (2): Dropout(p=0.2, inplace=False)
          (3): Linear(in_features=2048, out_features=512, bias=True)
          (4): Dropout(p=0.2, inplace=False)
        )
      )
      (dropout): Dropout(p=0.2, inplace=False)
    )
    (4): TransformerEncoderLayer(
      (layer_norm): LayerNorm((512,), eps=1e-05, elementwise_affine=True)
      (src_src_attenion): MultiHeadedAttention(
        (key_project): Linear(in_features=512, out_features=512, bias=True)
        (query_project): Linear(in_features=512, out_features=512, bias=True)
        (value_project): Linear(in_features=512, out_features=512, bias=True)
        (dropout): Dropout(p=0.2, inplace=False)
        (softmax): Softmax(dim=-1)
        (output_layer): Linear(in_features=512, out_features=512, bias=True)
      )
      (feed_forward): PositionwiseFeedForward(
        (layer_norm): LayerNorm((512,), eps=1e-05, elementwise_affine=True)
        (pwff): Sequential(
          (0): Linear(in_features=512, out_features=2048, bias=True)
          (1): ReLU()
          (2): Dropout(p=0.2, inplace=False)
          (3): Linear(in_features=2048, out_features=512, bias=True)
          (4): Dropout(p=0.2, inplace=False)
        )
      )
      (dropout): Dropout(p=0.2, inplace=False)
    )
    (5): TransformerEncoderLayer(
      (layer_norm): LayerNorm((512,), eps=1e-05, elementwise_affine=True)
      (src_src_attenion): MultiHeadedAttention(
        (key_project): Linear(in_features=512, out_features=512, bias=True)
        (query_project): Linear(in_features=512, out_features=512, bias=True)
        (value_project): Linear(in_features=512, out_features=512, bias=True)
        (dropout): Dropout(p=0.2, inplace=False)
        (softmax): Softmax(dim=-1)
        (output_layer): Linear(in_features=512, out_features=512, bias=True)
      )
      (feed_forward): PositionwiseFeedForward(
        (layer_norm): LayerNorm((512,), eps=1e-05, elementwise_affine=True)
        (pwff): Sequential(
          (0): Linear(in_features=512, out_features=2048, bias=True)
          (1): ReLU()
          (2): Dropout(p=0.2, inplace=False)
          (3): Linear(in_features=2048, out_features=512, bias=True)
          (4): Dropout(p=0.2, inplace=False)
        )
      )
      (dropout): Dropout(p=0.2, inplace=False)
    )
  )
  (layer_norm): LayerNorm((512,), eps=1e-05, elementwise_affine=True)
),
	GNN_encoder=GNNEncoder(
  (layers): ModuleList(
    (0): GNNEncoderLayer(
      (gnn): SAGEConv(512, 512, aggr=mean)
      (relu): ReLU()
      (layer_norm): LayerNorm((512,), eps=1e-05, elementwise_affine=True)
    )
    (1): GNNEncoderLayer(
      (gnn): SAGEConv(512, 512, aggr=mean)
      (relu): ReLU()
      (layer_norm): LayerNorm((512,), eps=1e-05, elementwise_affine=True)
    )
    (2): GNNEncoderLayer(
      (gnn): SAGEConv(512, 512, aggr=mean)
      (relu): ReLU()
      (layer_norm): LayerNorm((512,), eps=1e-05, elementwise_affine=True)
    )
    (3): GNNEncoderLayer(
      (gnn): SAGEConv(512, 512, aggr=mean)
      (relu): ReLU()
      (layer_norm): LayerNorm((512,), eps=1e-05, elementwise_affine=True)
    )
    (4): GNNEncoderLayer(
      (gnn): SAGEConv(512, 512, aggr=mean)
      (relu): ReLU()
      (layer_norm): LayerNorm((512,), eps=1e-05, elementwise_affine=True)
    )
    (5): GNNEncoderLayer(
      (gnn): SAGEConv(512, 512, aggr=mean)
      (relu): ReLU()
      (layer_norm): LayerNorm((512,), eps=1e-05, elementwise_affine=True)
    )
  )
  (layernorm): LayerNorm((512,), eps=1e-05, elementwise_affine=True)
),
	Transformer_decoder=TransformerDecoder(
  (layers): ModuleList(
    (0): TransformerDecoderLayer(
      (trg_trg_attention): MultiHeadedAttention(
        (key_project): Linear(in_features=512, out_features=512, bias=True)
        (query_project): Linear(in_features=512, out_features=512, bias=True)
        (value_project): Linear(in_features=512, out_features=512, bias=True)
        (dropout): Dropout(p=0.2, inplace=False)
        (softmax): Softmax(dim=-1)
        (output_layer): Linear(in_features=512, out_features=512, bias=True)
      )
      (src_trg_attention): MultiHeadedAttention(
        (key_project): Linear(in_features=512, out_features=512, bias=True)
        (query_project): Linear(in_features=512, out_features=512, bias=True)
        (value_project): Linear(in_features=512, out_features=512, bias=True)
        (dropout): Dropout(p=0.2, inplace=False)
        (softmax): Softmax(dim=-1)
        (output_layer): Linear(in_features=512, out_features=512, bias=True)
      )
      (gnn_trg_attention): MultiHeadedAttention(
        (key_project): Linear(in_features=512, out_features=512, bias=True)
        (query_project): Linear(in_features=512, out_features=512, bias=True)
        (value_project): Linear(in_features=512, out_features=512, bias=True)
        (dropout): Dropout(p=0.2, inplace=False)
        (softmax): Softmax(dim=-1)
        (output_layer): Linear(in_features=512, out_features=512, bias=True)
      )
      (feed_forward): PositionwiseFeedForward(
        (layer_norm): LayerNorm((512,), eps=1e-05, elementwise_affine=True)
        (pwff): Sequential(
          (0): Linear(in_features=512, out_features=2048, bias=True)
          (1): ReLU()
          (2): Dropout(p=0.2, inplace=False)
          (3): Linear(in_features=2048, out_features=512, bias=True)
          (4): Dropout(p=0.2, inplace=False)
        )
      )
      (dropout): Dropout(p=0.2, inplace=False)
      (layer_norm): LayerNorm((512,), eps=1e-05, elementwise_affine=True)
      (layer_norm2): LayerNorm((512,), eps=1e-05, elementwise_affine=True)
      (layer_norm3): LayerNorm((512,), eps=1e-05, elementwise_affine=True)
    )
    (1): TransformerDecoderLayer(
      (trg_trg_attention): MultiHeadedAttention(
        (key_project): Linear(in_features=512, out_features=512, bias=True)
        (query_project): Linear(in_features=512, out_features=512, bias=True)
        (value_project): Linear(in_features=512, out_features=512, bias=True)
        (dropout): Dropout(p=0.2, inplace=False)
        (softmax): Softmax(dim=-1)
        (output_layer): Linear(in_features=512, out_features=512, bias=True)
      )
      (src_trg_attention): MultiHeadedAttention(
        (key_project): Linear(in_features=512, out_features=512, bias=True)
        (query_project): Linear(in_features=512, out_features=512, bias=True)
        (value_project): Linear(in_features=512, out_features=512, bias=True)
        (dropout): Dropout(p=0.2, inplace=False)
        (softmax): Softmax(dim=-1)
        (output_layer): Linear(in_features=512, out_features=512, bias=True)
      )
      (gnn_trg_attention): MultiHeadedAttention(
        (key_project): Linear(in_features=512, out_features=512, bias=True)
        (query_project): Linear(in_features=512, out_features=512, bias=True)
        (value_project): Linear(in_features=512, out_features=512, bias=True)
        (dropout): Dropout(p=0.2, inplace=False)
        (softmax): Softmax(dim=-1)
        (output_layer): Linear(in_features=512, out_features=512, bias=True)
      )
      (feed_forward): PositionwiseFeedForward(
        (layer_norm): LayerNorm((512,), eps=1e-05, elementwise_affine=True)
        (pwff): Sequential(
          (0): Linear(in_features=512, out_features=2048, bias=True)
          (1): ReLU()
          (2): Dropout(p=0.2, inplace=False)
          (3): Linear(in_features=2048, out_features=512, bias=True)
          (4): Dropout(p=0.2, inplace=False)
        )
      )
      (dropout): Dropout(p=0.2, inplace=False)
      (layer_norm): LayerNorm((512,), eps=1e-05, elementwise_affine=True)
      (layer_norm2): LayerNorm((512,), eps=1e-05, elementwise_affine=True)
      (layer_norm3): LayerNorm((512,), eps=1e-05, elementwise_affine=True)
    )
    (2): TransformerDecoderLayer(
      (trg_trg_attention): MultiHeadedAttention(
        (key_project): Linear(in_features=512, out_features=512, bias=True)
        (query_project): Linear(in_features=512, out_features=512, bias=True)
        (value_project): Linear(in_features=512, out_features=512, bias=True)
        (dropout): Dropout(p=0.2, inplace=False)
        (softmax): Softmax(dim=-1)
        (output_layer): Linear(in_features=512, out_features=512, bias=True)
      )
      (src_trg_attention): MultiHeadedAttention(
        (key_project): Linear(in_features=512, out_features=512, bias=True)
        (query_project): Linear(in_features=512, out_features=512, bias=True)
        (value_project): Linear(in_features=512, out_features=512, bias=True)
        (dropout): Dropout(p=0.2, inplace=False)
        (softmax): Softmax(dim=-1)
        (output_layer): Linear(in_features=512, out_features=512, bias=True)
      )
      (gnn_trg_attention): MultiHeadedAttention(
        (key_project): Linear(in_features=512, out_features=512, bias=True)
        (query_project): Linear(in_features=512, out_features=512, bias=True)
        (value_project): Linear(in_features=512, out_features=512, bias=True)
        (dropout): Dropout(p=0.2, inplace=False)
        (softmax): Softmax(dim=-1)
        (output_layer): Linear(in_features=512, out_features=512, bias=True)
      )
      (feed_forward): PositionwiseFeedForward(
        (layer_norm): LayerNorm((512,), eps=1e-05, elementwise_affine=True)
        (pwff): Sequential(
          (0): Linear(in_features=512, out_features=2048, bias=True)
          (1): ReLU()
          (2): Dropout(p=0.2, inplace=False)
          (3): Linear(in_features=2048, out_features=512, bias=True)
          (4): Dropout(p=0.2, inplace=False)
        )
      )
      (dropout): Dropout(p=0.2, inplace=False)
      (layer_norm): LayerNorm((512,), eps=1e-05, elementwise_affine=True)
      (layer_norm2): LayerNorm((512,), eps=1e-05, elementwise_affine=True)
      (layer_norm3): LayerNorm((512,), eps=1e-05, elementwise_affine=True)
    )
    (3): TransformerDecoderLayer(
      (trg_trg_attention): MultiHeadedAttention(
        (key_project): Linear(in_features=512, out_features=512, bias=True)
        (query_project): Linear(in_features=512, out_features=512, bias=True)
        (value_project): Linear(in_features=512, out_features=512, bias=True)
        (dropout): Dropout(p=0.2, inplace=False)
        (softmax): Softmax(dim=-1)
        (output_layer): Linear(in_features=512, out_features=512, bias=True)
      )
      (src_trg_attention): MultiHeadedAttention(
        (key_project): Linear(in_features=512, out_features=512, bias=True)
        (query_project): Linear(in_features=512, out_features=512, bias=True)
        (value_project): Linear(in_features=512, out_features=512, bias=True)
        (dropout): Dropout(p=0.2, inplace=False)
        (softmax): Softmax(dim=-1)
        (output_layer): Linear(in_features=512, out_features=512, bias=True)
      )
      (gnn_trg_attention): MultiHeadedAttention(
        (key_project): Linear(in_features=512, out_features=512, bias=True)
        (query_project): Linear(in_features=512, out_features=512, bias=True)
        (value_project): Linear(in_features=512, out_features=512, bias=True)
        (dropout): Dropout(p=0.2, inplace=False)
        (softmax): Softmax(dim=-1)
        (output_layer): Linear(in_features=512, out_features=512, bias=True)
      )
      (feed_forward): PositionwiseFeedForward(
        (layer_norm): LayerNorm((512,), eps=1e-05, elementwise_affine=True)
        (pwff): Sequential(
          (0): Linear(in_features=512, out_features=2048, bias=True)
          (1): ReLU()
          (2): Dropout(p=0.2, inplace=False)
          (3): Linear(in_features=2048, out_features=512, bias=True)
          (4): Dropout(p=0.2, inplace=False)
        )
      )
      (dropout): Dropout(p=0.2, inplace=False)
      (layer_norm): LayerNorm((512,), eps=1e-05, elementwise_affine=True)
      (layer_norm2): LayerNorm((512,), eps=1e-05, elementwise_affine=True)
      (layer_norm3): LayerNorm((512,), eps=1e-05, elementwise_affine=True)
    )
    (4): TransformerDecoderLayer(
      (trg_trg_attention): MultiHeadedAttention(
        (key_project): Linear(in_features=512, out_features=512, bias=True)
        (query_project): Linear(in_features=512, out_features=512, bias=True)
        (value_project): Linear(in_features=512, out_features=512, bias=True)
        (dropout): Dropout(p=0.2, inplace=False)
        (softmax): Softmax(dim=-1)
        (output_layer): Linear(in_features=512, out_features=512, bias=True)
      )
      (src_trg_attention): MultiHeadedAttention(
        (key_project): Linear(in_features=512, out_features=512, bias=True)
        (query_project): Linear(in_features=512, out_features=512, bias=True)
        (value_project): Linear(in_features=512, out_features=512, bias=True)
        (dropout): Dropout(p=0.2, inplace=False)
        (softmax): Softmax(dim=-1)
        (output_layer): Linear(in_features=512, out_features=512, bias=True)
      )
      (gnn_trg_attention): MultiHeadedAttention(
        (key_project): Linear(in_features=512, out_features=512, bias=True)
        (query_project): Linear(in_features=512, out_features=512, bias=True)
        (value_project): Linear(in_features=512, out_features=512, bias=True)
        (dropout): Dropout(p=0.2, inplace=False)
        (softmax): Softmax(dim=-1)
        (output_layer): Linear(in_features=512, out_features=512, bias=True)
      )
      (feed_forward): PositionwiseFeedForward(
        (layer_norm): LayerNorm((512,), eps=1e-05, elementwise_affine=True)
        (pwff): Sequential(
          (0): Linear(in_features=512, out_features=2048, bias=True)
          (1): ReLU()
          (2): Dropout(p=0.2, inplace=False)
          (3): Linear(in_features=2048, out_features=512, bias=True)
          (4): Dropout(p=0.2, inplace=False)
        )
      )
      (dropout): Dropout(p=0.2, inplace=False)
      (layer_norm): LayerNorm((512,), eps=1e-05, elementwise_affine=True)
      (layer_norm2): LayerNorm((512,), eps=1e-05, elementwise_affine=True)
      (layer_norm3): LayerNorm((512,), eps=1e-05, elementwise_affine=True)
    )
    (5): TransformerDecoderLayer(
      (trg_trg_attention): MultiHeadedAttention(
        (key_project): Linear(in_features=512, out_features=512, bias=True)
        (query_project): Linear(in_features=512, out_features=512, bias=True)
        (value_project): Linear(in_features=512, out_features=512, bias=True)
        (dropout): Dropout(p=0.2, inplace=False)
        (softmax): Softmax(dim=-1)
        (output_layer): Linear(in_features=512, out_features=512, bias=True)
      )
      (src_trg_attention): MultiHeadedAttention(
        (key_project): Linear(in_features=512, out_features=512, bias=True)
        (query_project): Linear(in_features=512, out_features=512, bias=True)
        (value_project): Linear(in_features=512, out_features=512, bias=True)
        (dropout): Dropout(p=0.2, inplace=False)
        (softmax): Softmax(dim=-1)
        (output_layer): Linear(in_features=512, out_features=512, bias=True)
      )
      (gnn_trg_attention): MultiHeadedAttention(
        (key_project): Linear(in_features=512, out_features=512, bias=True)
        (query_project): Linear(in_features=512, out_features=512, bias=True)
        (value_project): Linear(in_features=512, out_features=512, bias=True)
        (dropout): Dropout(p=0.2, inplace=False)
        (softmax): Softmax(dim=-1)
        (output_layer): Linear(in_features=512, out_features=512, bias=True)
      )
      (feed_forward): PositionwiseFeedForward(
        (layer_norm): LayerNorm((512,), eps=1e-05, elementwise_affine=True)
        (pwff): Sequential(
          (0): Linear(in_features=512, out_features=2048, bias=True)
          (1): ReLU()
          (2): Dropout(p=0.2, inplace=False)
          (3): Linear(in_features=2048, out_features=512, bias=True)
          (4): Dropout(p=0.2, inplace=False)
        )
      )
      (dropout): Dropout(p=0.2, inplace=False)
      (layer_norm): LayerNorm((512,), eps=1e-05, elementwise_affine=True)
      (layer_norm2): LayerNorm((512,), eps=1e-05, elementwise_affine=True)
      (layer_norm3): LayerNorm((512,), eps=1e-05, elementwise_affine=True)
    )
  )
  (layer_norm): LayerNorm((512,), eps=1e-05, elementwise_affine=True)
),
	src_embed=Embeddings(
  (lut): Embedding(26684, 512, padding_idx=1)
),
	code_learnable_embed=LearnablePositionalEncoding(
  (learn_lut): Embedding(400, 512)
),
	position_embed=Embeddings(
  (lut): Embedding(20587, 512, padding_idx=1)
),
	trg_embed=Embeddings(
  (lut): Embedding(13207, 512, padding_idx=1)
),
	text_learnable_embed=LearnablePositionalEncoding(
  (learn_lut): Embedding(50, 512)
),
	loss_function=XentLoss(
  (criterion): NLLLoss()
))
2023-03-16 16:42:36,337 - INFO - model - Total parameters number: 91563520
2023-03-16 16:42:36,338 - DEBUG - model - Trainable parameters(name): transformer_encoder.layers.0.layer_norm.weight               [512]
2023-03-16 16:42:36,338 - DEBUG - model - Trainable parameters(name): transformer_encoder.layers.0.layer_norm.bias                 [512]
…
2023-03-16 16:42:36,344 - WARNING - __main__ - use load_model item in config yaml.
2023-03-16 16:42:36,344 - INFO - __main__ - ckpt_path = test_dir_traen2_gnn6/435800.ckpt
2023-03-16 16:42:38,768 - INFO - __main__ - Load model from /home/tongye2/ytnmt/src_integration/test_dir_traen2_gnn6/435800.ckpt.
2023-03-16 16:43:08,090 - INFO - root - Hello! This is Tong Ye's Transformer!
2023-03-16 16:43:11,508 - INFO - model - Build Model...
2023-03-16 16:43:12,144 - DEBUG - model - Model(
	Transformer_encoder=TransformerEncoder(
  (layers): ModuleList(
    (0): TransformerEncoderLayer(
      (layer_norm): LayerNorm((512,), eps=1e-05, elementwise_affine=True)
      (src_src_attenion): MultiHeadedAttention(
        (key_project): Linear(in_features=512, out_features=512, bias=True)
        (query_project): Linear(in_features=512, out_features=512, bias=True)
        (value_project): Linear(in_features=512, out_features=512, bias=True)
        (dropout): Dropout(p=0.2, inplace=False)
        (softmax): Softmax(dim=-1)
        (output_layer): Linear(in_features=512, out_features=512, bias=True)
      )
      (feed_forward): PositionwiseFeedForward(
        (layer_norm): LayerNorm((512,), eps=1e-05, elementwise_affine=True)
        (pwff): Sequential(
          (0): Linear(in_features=512, out_features=2048, bias=True)
          (1): ReLU()
          (2): Dropout(p=0.2, inplace=False)
          (3): Linear(in_features=2048, out_features=512, bias=True)
          (4): Dropout(p=0.2, inplace=False)
        )
      )
      (dropout): Dropout(p=0.2, inplace=False)
    )
    (1): TransformerEncoderLayer(
      (layer_norm): LayerNorm((512,), eps=1e-05, elementwise_affine=True)
      (src_src_attenion): MultiHeadedAttention(
        (key_project): Linear(in_features=512, out_features=512, bias=True)
        (query_project): Linear(in_features=512, out_features=512, bias=True)
        (value_project): Linear(in_features=512, out_features=512, bias=True)
        (dropout): Dropout(p=0.2, inplace=False)
        (softmax): Softmax(dim=-1)
        (output_layer): Linear(in_features=512, out_features=512, bias=True)
      )
      (feed_forward): PositionwiseFeedForward(
        (layer_norm): LayerNorm((512,), eps=1e-05, elementwise_affine=True)
        (pwff): Sequential(
          (0): Linear(in_features=512, out_features=2048, bias=True)
          (1): ReLU()
          (2): Dropout(p=0.2, inplace=False)
          (3): Linear(in_features=2048, out_features=512, bias=True)
          (4): Dropout(p=0.2, inplace=False)
        )
      )
      (dropout): Dropout(p=0.2, inplace=False)
    )
  )
  (layer_norm): LayerNorm((512,), eps=1e-05, elementwise_affine=True)
),
	GNN_encoder=GNNEncoder(
  (layers): ModuleList(
    (0): GNNEncoderLayer(
      (gnn): SAGEConv(512, 512, aggr=mean)
      (relu): ReLU()
      (layer_norm): LayerNorm((512,), eps=1e-05, elementwise_affine=True)
    )
    (1): GNNEncoderLayer(
      (gnn): SAGEConv(512, 512, aggr=mean)
      (relu): ReLU()
      (layer_norm): LayerNorm((512,), eps=1e-05, elementwise_affine=True)
    )
    (2): GNNEncoderLayer(
      (gnn): SAGEConv(512, 512, aggr=mean)
      (relu): ReLU()
      (layer_norm): LayerNorm((512,), eps=1e-05, elementwise_affine=True)
    )
    (3): GNNEncoderLayer(
      (gnn): SAGEConv(512, 512, aggr=mean)
      (relu): ReLU()
      (layer_norm): LayerNorm((512,), eps=1e-05, elementwise_affine=True)
    )
    (4): GNNEncoderLayer(
      (gnn): SAGEConv(512, 512, aggr=mean)
      (relu): ReLU()
      (layer_norm): LayerNorm((512,), eps=1e-05, elementwise_affine=True)
    )
    (5): GNNEncoderLayer(
      (gnn): SAGEConv(512, 512, aggr=mean)
      (relu): ReLU()
      (layer_norm): LayerNorm((512,), eps=1e-05, elementwise_affine=True)
    )
  )
  (layernorm): LayerNorm((512,), eps=1e-05, elementwise_affine=True)
),
	Transformer_decoder=TransformerDecoder(
  (layers): ModuleList(
    (0): TransformerDecoderLayer(
      (trg_trg_attention): MultiHeadedAttention(
        (key_project): Linear(in_features=512, out_features=512, bias=True)
        (query_project): Linear(in_features=512, out_features=512, bias=True)
        (value_project): Linear(in_features=512, out_features=512, bias=True)
        (dropout): Dropout(p=0.2, inplace=False)
        (softmax): Softmax(dim=-1)
        (output_layer): Linear(in_features=512, out_features=512, bias=True)
      )
      (src_trg_attention): MultiHeadedAttention(
        (key_project): Linear(in_features=512, out_features=512, bias=True)
        (query_project): Linear(in_features=512, out_features=512, bias=True)
        (value_project): Linear(in_features=512, out_features=512, bias=True)
        (dropout): Dropout(p=0.2, inplace=False)
        (softmax): Softmax(dim=-1)
        (output_layer): Linear(in_features=512, out_features=512, bias=True)
      )
      (gnn_trg_attention): MultiHeadedAttention(
        (key_project): Linear(in_features=512, out_features=512, bias=True)
        (query_project): Linear(in_features=512, out_features=512, bias=True)
        (value_project): Linear(in_features=512, out_features=512, bias=True)
        (dropout): Dropout(p=0.2, inplace=False)
        (softmax): Softmax(dim=-1)
        (output_layer): Linear(in_features=512, out_features=512, bias=True)
      )
      (feed_forward): PositionwiseFeedForward(
        (layer_norm): LayerNorm((512,), eps=1e-05, elementwise_affine=True)
        (pwff): Sequential(
          (0): Linear(in_features=512, out_features=2048, bias=True)
          (1): ReLU()
          (2): Dropout(p=0.2, inplace=False)
          (3): Linear(in_features=2048, out_features=512, bias=True)
          (4): Dropout(p=0.2, inplace=False)
        )
      )
      (dropout): Dropout(p=0.2, inplace=False)
      (layer_norm): LayerNorm((512,), eps=1e-05, elementwise_affine=True)
      (layer_norm2): LayerNorm((512,), eps=1e-05, elementwise_affine=True)
      (layer_norm3): LayerNorm((512,), eps=1e-05, elementwise_affine=True)
    )
    (1): TransformerDecoderLayer(
      (trg_trg_attention): MultiHeadedAttention(
        (key_project): Linear(in_features=512, out_features=512, bias=True)
        (query_project): Linear(in_features=512, out_features=512, bias=True)
        (value_project): Linear(in_features=512, out_features=512, bias=True)
        (dropout): Dropout(p=0.2, inplace=False)
        (softmax): Softmax(dim=-1)
        (output_layer): Linear(in_features=512, out_features=512, bias=True)
      )
      (src_trg_attention): MultiHeadedAttention(
        (key_project): Linear(in_features=512, out_features=512, bias=True)
        (query_project): Linear(in_features=512, out_features=512, bias=True)
        (value_project): Linear(in_features=512, out_features=512, bias=True)
        (dropout): Dropout(p=0.2, inplace=False)
        (softmax): Softmax(dim=-1)
        (output_layer): Linear(in_features=512, out_features=512, bias=True)
      )
      (gnn_trg_attention): MultiHeadedAttention(
        (key_project): Linear(in_features=512, out_features=512, bias=True)
        (query_project): Linear(in_features=512, out_features=512, bias=True)
        (value_project): Linear(in_features=512, out_features=512, bias=True)
        (dropout): Dropout(p=0.2, inplace=False)
        (softmax): Softmax(dim=-1)
        (output_layer): Linear(in_features=512, out_features=512, bias=True)
      )
      (feed_forward): PositionwiseFeedForward(
        (layer_norm): LayerNorm((512,), eps=1e-05, elementwise_affine=True)
        (pwff): Sequential(
          (0): Linear(in_features=512, out_features=2048, bias=True)
          (1): ReLU()
          (2): Dropout(p=0.2, inplace=False)
          (3): Linear(in_features=2048, out_features=512, bias=True)
          (4): Dropout(p=0.2, inplace=False)
        )
      )
      (dropout): Dropout(p=0.2, inplace=False)
      (layer_norm): LayerNorm((512,), eps=1e-05, elementwise_affine=True)
      (layer_norm2): LayerNorm((512,), eps=1e-05, elementwise_affine=True)
      (layer_norm3): LayerNorm((512,), eps=1e-05, elementwise_affine=True)
    )
    (2): TransformerDecoderLayer(
      (trg_trg_attention): MultiHeadedAttention(
        (key_project): Linear(in_features=512, out_features=512, bias=True)
        (query_project): Linear(in_features=512, out_features=512, bias=True)
        (value_project): Linear(in_features=512, out_features=512, bias=True)
        (dropout): Dropout(p=0.2, inplace=False)
        (softmax): Softmax(dim=-1)
        (output_layer): Linear(in_features=512, out_features=512, bias=True)
      )
      (src_trg_attention): MultiHeadedAttention(
        (key_project): Linear(in_features=512, out_features=512, bias=True)
        (query_project): Linear(in_features=512, out_features=512, bias=True)
        (value_project): Linear(in_features=512, out_features=512, bias=True)
        (dropout): Dropout(p=0.2, inplace=False)
        (softmax): Softmax(dim=-1)
        (output_layer): Linear(in_features=512, out_features=512, bias=True)
      )
      (gnn_trg_attention): MultiHeadedAttention(
        (key_project): Linear(in_features=512, out_features=512, bias=True)
        (query_project): Linear(in_features=512, out_features=512, bias=True)
        (value_project): Linear(in_features=512, out_features=512, bias=True)
        (dropout): Dropout(p=0.2, inplace=False)
        (softmax): Softmax(dim=-1)
        (output_layer): Linear(in_features=512, out_features=512, bias=True)
      )
      (feed_forward): PositionwiseFeedForward(
        (layer_norm): LayerNorm((512,), eps=1e-05, elementwise_affine=True)
        (pwff): Sequential(
          (0): Linear(in_features=512, out_features=2048, bias=True)
          (1): ReLU()
          (2): Dropout(p=0.2, inplace=False)
          (3): Linear(in_features=2048, out_features=512, bias=True)
          (4): Dropout(p=0.2, inplace=False)
        )
      )
      (dropout): Dropout(p=0.2, inplace=False)
      (layer_norm): LayerNorm((512,), eps=1e-05, elementwise_affine=True)
      (layer_norm2): LayerNorm((512,), eps=1e-05, elementwise_affine=True)
      (layer_norm3): LayerNorm((512,), eps=1e-05, elementwise_affine=True)
    )
    (3): TransformerDecoderLayer(
      (trg_trg_attention): MultiHeadedAttention(
        (key_project): Linear(in_features=512, out_features=512, bias=True)
        (query_project): Linear(in_features=512, out_features=512, bias=True)
        (value_project): Linear(in_features=512, out_features=512, bias=True)
        (dropout): Dropout(p=0.2, inplace=False)
        (softmax): Softmax(dim=-1)
        (output_layer): Linear(in_features=512, out_features=512, bias=True)
      )
      (src_trg_attention): MultiHeadedAttention(
        (key_project): Linear(in_features=512, out_features=512, bias=True)
        (query_project): Linear(in_features=512, out_features=512, bias=True)
        (value_project): Linear(in_features=512, out_features=512, bias=True)
        (dropout): Dropout(p=0.2, inplace=False)
        (softmax): Softmax(dim=-1)
        (output_layer): Linear(in_features=512, out_features=512, bias=True)
      )
      (gnn_trg_attention): MultiHeadedAttention(
        (key_project): Linear(in_features=512, out_features=512, bias=True)
        (query_project): Linear(in_features=512, out_features=512, bias=True)
        (value_project): Linear(in_features=512, out_features=512, bias=True)
        (dropout): Dropout(p=0.2, inplace=False)
        (softmax): Softmax(dim=-1)
        (output_layer): Linear(in_features=512, out_features=512, bias=True)
      )
      (feed_forward): PositionwiseFeedForward(
        (layer_norm): LayerNorm((512,), eps=1e-05, elementwise_affine=True)
        (pwff): Sequential(
          (0): Linear(in_features=512, out_features=2048, bias=True)
          (1): ReLU()
          (2): Dropout(p=0.2, inplace=False)
          (3): Linear(in_features=2048, out_features=512, bias=True)
          (4): Dropout(p=0.2, inplace=False)
        )
      )
      (dropout): Dropout(p=0.2, inplace=False)
      (layer_norm): LayerNorm((512,), eps=1e-05, elementwise_affine=True)
      (layer_norm2): LayerNorm((512,), eps=1e-05, elementwise_affine=True)
      (layer_norm3): LayerNorm((512,), eps=1e-05, elementwise_affine=True)
    )
    (4): TransformerDecoderLayer(
      (trg_trg_attention): MultiHeadedAttention(
        (key_project): Linear(in_features=512, out_features=512, bias=True)
        (query_project): Linear(in_features=512, out_features=512, bias=True)
        (value_project): Linear(in_features=512, out_features=512, bias=True)
        (dropout): Dropout(p=0.2, inplace=False)
        (softmax): Softmax(dim=-1)
        (output_layer): Linear(in_features=512, out_features=512, bias=True)
      )
      (src_trg_attention): MultiHeadedAttention(
        (key_project): Linear(in_features=512, out_features=512, bias=True)
        (query_project): Linear(in_features=512, out_features=512, bias=True)
        (value_project): Linear(in_features=512, out_features=512, bias=True)
        (dropout): Dropout(p=0.2, inplace=False)
        (softmax): Softmax(dim=-1)
        (output_layer): Linear(in_features=512, out_features=512, bias=True)
      )
      (gnn_trg_attention): MultiHeadedAttention(
        (key_project): Linear(in_features=512, out_features=512, bias=True)
        (query_project): Linear(in_features=512, out_features=512, bias=True)
        (value_project): Linear(in_features=512, out_features=512, bias=True)
        (dropout): Dropout(p=0.2, inplace=False)
        (softmax): Softmax(dim=-1)
        (output_layer): Linear(in_features=512, out_features=512, bias=True)
      )
      (feed_forward): PositionwiseFeedForward(
        (layer_norm): LayerNorm((512,), eps=1e-05, elementwise_affine=True)
        (pwff): Sequential(
          (0): Linear(in_features=512, out_features=2048, bias=True)
          (1): ReLU()
          (2): Dropout(p=0.2, inplace=False)
          (3): Linear(in_features=2048, out_features=512, bias=True)
          (4): Dropout(p=0.2, inplace=False)
        )
      )
      (dropout): Dropout(p=0.2, inplace=False)
      (layer_norm): LayerNorm((512,), eps=1e-05, elementwise_affine=True)
      (layer_norm2): LayerNorm((512,), eps=1e-05, elementwise_affine=True)
      (layer_norm3): LayerNorm((512,), eps=1e-05, elementwise_affine=True)
    )
    (5): TransformerDecoderLayer(
      (trg_trg_attention): MultiHeadedAttention(
        (key_project): Linear(in_features=512, out_features=512, bias=True)
        (query_project): Linear(in_features=512, out_features=512, bias=True)
        (value_project): Linear(in_features=512, out_features=512, bias=True)
        (dropout): Dropout(p=0.2, inplace=False)
        (softmax): Softmax(dim=-1)
        (output_layer): Linear(in_features=512, out_features=512, bias=True)
      )
      (src_trg_attention): MultiHeadedAttention(
        (key_project): Linear(in_features=512, out_features=512, bias=True)
        (query_project): Linear(in_features=512, out_features=512, bias=True)
        (value_project): Linear(in_features=512, out_features=512, bias=True)
        (dropout): Dropout(p=0.2, inplace=False)
        (softmax): Softmax(dim=-1)
        (output_layer): Linear(in_features=512, out_features=512, bias=True)
      )
      (gnn_trg_attention): MultiHeadedAttention(
        (key_project): Linear(in_features=512, out_features=512, bias=True)
        (query_project): Linear(in_features=512, out_features=512, bias=True)
        (value_project): Linear(in_features=512, out_features=512, bias=True)
        (dropout): Dropout(p=0.2, inplace=False)
        (softmax): Softmax(dim=-1)
        (output_layer): Linear(in_features=512, out_features=512, bias=True)
      )
      (feed_forward): PositionwiseFeedForward(
        (layer_norm): LayerNorm((512,), eps=1e-05, elementwise_affine=True)
        (pwff): Sequential(
          (0): Linear(in_features=512, out_features=2048, bias=True)
          (1): ReLU()
          (2): Dropout(p=0.2, inplace=False)
          (3): Linear(in_features=2048, out_features=512, bias=True)
          (4): Dropout(p=0.2, inplace=False)
        )
      )
      (dropout): Dropout(p=0.2, inplace=False)
      (layer_norm): LayerNorm((512,), eps=1e-05, elementwise_affine=True)
      (layer_norm2): LayerNorm((512,), eps=1e-05, elementwise_affine=True)
      (layer_norm3): LayerNorm((512,), eps=1e-05, elementwise_affine=True)
    )
  )
  (layer_norm): LayerNorm((512,), eps=1e-05, elementwise_affine=True)
),
	src_embed=Embeddings(
  (lut): Embedding(26684, 512, padding_idx=1)
),
	code_learnable_embed=LearnablePositionalEncoding(
  (learn_lut): Embedding(400, 512)
),
	position_embed=Embeddings(
  (lut): Embedding(20587, 512, padding_idx=1)
),
	trg_embed=Embeddings(
  (lut): Embedding(13207, 512, padding_idx=1)
),
	text_learnable_embed=LearnablePositionalEncoding(
  (learn_lut): Embedding(50, 512)
),
	loss_function=XentLoss(
  (criterion): NLLLoss()
))
2023-03-16 16:43:12,149 - INFO - model - Total parameters number: 78953984
2023-03-16 16:43:12,150 - DEBUG - model - Trainable parameters(name): transformer_encoder.layers.0.layer_norm.weight               [512]
2023-03-16 16:43:12,150 - DEBUG - model - Trainable parameters(name): transformer_encoder.layers.0.layer_norm.bias                 [512]
…
