…
2023-03-08 13:45:25,503 - INFO - data - average text tokens = 15.87554509983934
2023-03-08 13:45:25,503 - INFO - data - average position tokens = 188.96867110397062
2023-03-08 13:45:25,503 - INFO - data - average ast edges = 375.93734220794124
2023-03-08 13:45:28,772 - INFO - data - code vocab length = 13367
2023-03-08 13:45:28,772 - INFO - data - text vocab length = 6991
2023-03-08 13:45:28,772 - INFO - data - position vocab length = 13753
2023-03-08 13:45:31,319 - INFO - model - Build Model...
2023-03-08 13:45:31,771 - DEBUG - model - Model(
	Transformer_encoder=TransformerEncoder(
  (layers): ModuleList(
    (0): TransformerEncoderLayer(
      (layer_norm): LayerNorm((512,), eps=1e-05, elementwise_affine=True)
      (src_src_attenion): MultiHeadedAttention(
        (key_project): Linear(in_features=512, out_features=512, bias=True)
        (query_project): Linear(in_features=512, out_features=512, bias=True)
        (value_project): Linear(in_features=512, out_features=512, bias=True)
        (dropout): Dropout(p=0.2, inplace=False)
        (softmax): Softmax(dim=-1)
        (output_layer): Linear(in_features=512, out_features=512, bias=True)
      )
      (feed_forward): PositionwiseFeedForward(
        (layer_norm): LayerNorm((512,), eps=1e-05, elementwise_affine=True)
        (pwff): Sequential(
          (0): Linear(in_features=512, out_features=2048, bias=True)
          (1): ReLU()
          (2): Dropout(p=0.2, inplace=False)
          (3): Linear(in_features=2048, out_features=512, bias=True)
          (4): Dropout(p=0.2, inplace=False)
        )
      )
      (dropout): Dropout(p=0.2, inplace=False)
    )
    (1): TransformerEncoderLayer(
      (layer_norm): LayerNorm((512,), eps=1e-05, elementwise_affine=True)
      (src_src_attenion): MultiHeadedAttention(
        (key_project): Linear(in_features=512, out_features=512, bias=True)
        (query_project): Linear(in_features=512, out_features=512, bias=True)
        (value_project): Linear(in_features=512, out_features=512, bias=True)
        (dropout): Dropout(p=0.2, inplace=False)
        (softmax): Softmax(dim=-1)
        (output_layer): Linear(in_features=512, out_features=512, bias=True)
      )
      (feed_forward): PositionwiseFeedForward(
        (layer_norm): LayerNorm((512,), eps=1e-05, elementwise_affine=True)
        (pwff): Sequential(
          (0): Linear(in_features=512, out_features=2048, bias=True)
          (1): ReLU()
          (2): Dropout(p=0.2, inplace=False)
          (3): Linear(in_features=2048, out_features=512, bias=True)
          (4): Dropout(p=0.2, inplace=False)
        )
      )
      (dropout): Dropout(p=0.2, inplace=False)
    )
    (2): TransformerEncoderLayer(
      (layer_norm): LayerNorm((512,), eps=1e-05, elementwise_affine=True)
      (src_src_attenion): MultiHeadedAttention(
        (key_project): Linear(in_features=512, out_features=512, bias=True)
        (query_project): Linear(in_features=512, out_features=512, bias=True)
        (value_project): Linear(in_features=512, out_features=512, bias=True)
        (dropout): Dropout(p=0.2, inplace=False)
        (softmax): Softmax(dim=-1)
        (output_layer): Linear(in_features=512, out_features=512, bias=True)
      )
      (feed_forward): PositionwiseFeedForward(
        (layer_norm): LayerNorm((512,), eps=1e-05, elementwise_affine=True)
        (pwff): Sequential(
          (0): Linear(in_features=512, out_features=2048, bias=True)
          (1): ReLU()
          (2): Dropout(p=0.2, inplace=False)
          (3): Linear(in_features=2048, out_features=512, bias=True)
          (4): Dropout(p=0.2, inplace=False)
        )
      )
      (dropout): Dropout(p=0.2, inplace=False)
    )
    (3): TransformerEncoderLayer(
      (layer_norm): LayerNorm((512,), eps=1e-05, elementwise_affine=True)
      (src_src_attenion): MultiHeadedAttention(
        (key_project): Linear(in_features=512, out_features=512, bias=True)
        (query_project): Linear(in_features=512, out_features=512, bias=True)
        (value_project): Linear(in_features=512, out_features=512, bias=True)
        (dropout): Dropout(p=0.2, inplace=False)
        (softmax): Softmax(dim=-1)
        (output_layer): Linear(in_features=512, out_features=512, bias=True)
      )
      (feed_forward): PositionwiseFeedForward(
        (layer_norm): LayerNorm((512,), eps=1e-05, elementwise_affine=True)
        (pwff): Sequential(
          (0): Linear(in_features=512, out_features=2048, bias=True)
          (1): ReLU()
          (2): Dropout(p=0.2, inplace=False)
          (3): Linear(in_features=2048, out_features=512, bias=True)
          (4): Dropout(p=0.2, inplace=False)
        )
      )
      (dropout): Dropout(p=0.2, inplace=False)
    )
    (4): TransformerEncoderLayer(
      (layer_norm): LayerNorm((512,), eps=1e-05, elementwise_affine=True)
      (src_src_attenion): MultiHeadedAttention(
        (key_project): Linear(in_features=512, out_features=512, bias=True)
        (query_project): Linear(in_features=512, out_features=512, bias=True)
        (value_project): Linear(in_features=512, out_features=512, bias=True)
        (dropout): Dropout(p=0.2, inplace=False)
        (softmax): Softmax(dim=-1)
        (output_layer): Linear(in_features=512, out_features=512, bias=True)
      )
      (feed_forward): PositionwiseFeedForward(
        (layer_norm): LayerNorm((512,), eps=1e-05, elementwise_affine=True)
        (pwff): Sequential(
          (0): Linear(in_features=512, out_features=2048, bias=True)
          (1): ReLU()
          (2): Dropout(p=0.2, inplace=False)
          (3): Linear(in_features=2048, out_features=512, bias=True)
          (4): Dropout(p=0.2, inplace=False)
        )
      )
      (dropout): Dropout(p=0.2, inplace=False)
    )
    (5): TransformerEncoderLayer(
      (layer_norm): LayerNorm((512,), eps=1e-05, elementwise_affine=True)
      (src_src_attenion): MultiHeadedAttention(
        (key_project): Linear(in_features=512, out_features=512, bias=True)
        (query_project): Linear(in_features=512, out_features=512, bias=True)
        (value_project): Linear(in_features=512, out_features=512, bias=True)
        (dropout): Dropout(p=0.2, inplace=False)
        (softmax): Softmax(dim=-1)
        (output_layer): Linear(in_features=512, out_features=512, bias=True)
      )
      (feed_forward): PositionwiseFeedForward(
        (layer_norm): LayerNorm((512,), eps=1e-05, elementwise_affine=True)
        (pwff): Sequential(
          (0): Linear(in_features=512, out_features=2048, bias=True)
          (1): ReLU()
          (2): Dropout(p=0.2, inplace=False)
          (3): Linear(in_features=2048, out_features=512, bias=True)
          (4): Dropout(p=0.2, inplace=False)
        )
      )
      (dropout): Dropout(p=0.2, inplace=False)
    )
  )
  (layer_norm): LayerNorm((512,), eps=1e-05, elementwise_affine=True)
),
	GNN_encoder=GNNEncoder(
  (layers): ModuleList(
    (0): GNNEncoderLayer(
      (gnn): SAGEConv(512, 512, aggr=mean)
      (relu): ReLU()
      (layer_norm): LayerNorm((512,), eps=1e-05, elementwise_affine=True)
    )
    (1): GNNEncoderLayer(
      (gnn): SAGEConv(512, 512, aggr=mean)
      (relu): ReLU()
      (layer_norm): LayerNorm((512,), eps=1e-05, elementwise_affine=True)
    )
    (2): GNNEncoderLayer(
      (gnn): SAGEConv(512, 512, aggr=mean)
      (relu): ReLU()
      (layer_norm): LayerNorm((512,), eps=1e-05, elementwise_affine=True)
    )
    (3): GNNEncoderLayer(
      (gnn): SAGEConv(512, 512, aggr=mean)
      (relu): ReLU()
      (layer_norm): LayerNorm((512,), eps=1e-05, elementwise_affine=True)
    )
    (4): GNNEncoderLayer(
      (gnn): SAGEConv(512, 512, aggr=mean)
      (relu): ReLU()
      (layer_norm): LayerNorm((512,), eps=1e-05, elementwise_affine=True)
    )
    (5): GNNEncoderLayer(
      (gnn): SAGEConv(512, 512, aggr=mean)
      (relu): ReLU()
      (layer_norm): LayerNorm((512,), eps=1e-05, elementwise_affine=True)
    )
  )
),
	Transformer_decoder=TransformerDecoder(
  (layers): ModuleList(
    (0): TransformerDecoderLayer(
      (trg_trg_attention): MultiHeadedAttention(
        (key_project): Linear(in_features=512, out_features=512, bias=True)
        (query_project): Linear(in_features=512, out_features=512, bias=True)
        (value_project): Linear(in_features=512, out_features=512, bias=True)
        (dropout): Dropout(p=0.2, inplace=False)
        (softmax): Softmax(dim=-1)
        (output_layer): Linear(in_features=512, out_features=512, bias=True)
      )
      (src_trg_attention): MultiHeadedAttention(
        (key_project): Linear(in_features=512, out_features=512, bias=True)
        (query_project): Linear(in_features=512, out_features=512, bias=True)
        (value_project): Linear(in_features=512, out_features=512, bias=True)
        (dropout): Dropout(p=0.2, inplace=False)
        (softmax): Softmax(dim=-1)
        (output_layer): Linear(in_features=512, out_features=512, bias=True)
      )
      (feed_forward): PositionwiseFeedForward(
        (layer_norm): LayerNorm((512,), eps=1e-05, elementwise_affine=True)
        (pwff): Sequential(
          (0): Linear(in_features=512, out_features=2048, bias=True)
          (1): ReLU()
          (2): Dropout(p=0.2, inplace=False)
          (3): Linear(in_features=2048, out_features=512, bias=True)
          (4): Dropout(p=0.2, inplace=False)
        )
      )
      (dropout): Dropout(p=0.2, inplace=False)
      (layer_norm): LayerNorm((512,), eps=1e-05, elementwise_affine=True)
      (layer_norm2): LayerNorm((512,), eps=1e-05, elementwise_affine=True)
    )
    (1): TransformerDecoderLayer(
      (trg_trg_attention): MultiHeadedAttention(
        (key_project): Linear(in_features=512, out_features=512, bias=True)
        (query_project): Linear(in_features=512, out_features=512, bias=True)
        (value_project): Linear(in_features=512, out_features=512, bias=True)
        (dropout): Dropout(p=0.2, inplace=False)
        (softmax): Softmax(dim=-1)
        (output_layer): Linear(in_features=512, out_features=512, bias=True)
      )
      (src_trg_attention): MultiHeadedAttention(
        (key_project): Linear(in_features=512, out_features=512, bias=True)
        (query_project): Linear(in_features=512, out_features=512, bias=True)
        (value_project): Linear(in_features=512, out_features=512, bias=True)
        (dropout): Dropout(p=0.2, inplace=False)
        (softmax): Softmax(dim=-1)
        (output_layer): Linear(in_features=512, out_features=512, bias=True)
      )
      (feed_forward): PositionwiseFeedForward(
        (layer_norm): LayerNorm((512,), eps=1e-05, elementwise_affine=True)
        (pwff): Sequential(
          (0): Linear(in_features=512, out_features=2048, bias=True)
          (1): ReLU()
          (2): Dropout(p=0.2, inplace=False)
          (3): Linear(in_features=2048, out_features=512, bias=True)
          (4): Dropout(p=0.2, inplace=False)
        )
      )
      (dropout): Dropout(p=0.2, inplace=False)
      (layer_norm): LayerNorm((512,), eps=1e-05, elementwise_affine=True)
      (layer_norm2): LayerNorm((512,), eps=1e-05, elementwise_affine=True)
    )
    (2): TransformerDecoderLayer(
      (trg_trg_attention): MultiHeadedAttention(
        (key_project): Linear(in_features=512, out_features=512, bias=True)
        (query_project): Linear(in_features=512, out_features=512, bias=True)
        (value_project): Linear(in_features=512, out_features=512, bias=True)
        (dropout): Dropout(p=0.2, inplace=False)
        (softmax): Softmax(dim=-1)
        (output_layer): Linear(in_features=512, out_features=512, bias=True)
      )
      (src_trg_attention): MultiHeadedAttention(
        (key_project): Linear(in_features=512, out_features=512, bias=True)
        (query_project): Linear(in_features=512, out_features=512, bias=True)
        (value_project): Linear(in_features=512, out_features=512, bias=True)
        (dropout): Dropout(p=0.2, inplace=False)
        (softmax): Softmax(dim=-1)
        (output_layer): Linear(in_features=512, out_features=512, bias=True)
      )
      (feed_forward): PositionwiseFeedForward(
        (layer_norm): LayerNorm((512,), eps=1e-05, elementwise_affine=True)
        (pwff): Sequential(
          (0): Linear(in_features=512, out_features=2048, bias=True)
          (1): ReLU()
          (2): Dropout(p=0.2, inplace=False)
          (3): Linear(in_features=2048, out_features=512, bias=True)
          (4): Dropout(p=0.2, inplace=False)
        )
      )
      (dropout): Dropout(p=0.2, inplace=False)
      (layer_norm): LayerNorm((512,), eps=1e-05, elementwise_affine=True)
      (layer_norm2): LayerNorm((512,), eps=1e-05, elementwise_affine=True)
    )
    (3): TransformerDecoderLayer(
      (trg_trg_attention): MultiHeadedAttention(
        (key_project): Linear(in_features=512, out_features=512, bias=True)
        (query_project): Linear(in_features=512, out_features=512, bias=True)
        (value_project): Linear(in_features=512, out_features=512, bias=True)
        (dropout): Dropout(p=0.2, inplace=False)
        (softmax): Softmax(dim=-1)
        (output_layer): Linear(in_features=512, out_features=512, bias=True)
      )
      (src_trg_attention): MultiHeadedAttention(
        (key_project): Linear(in_features=512, out_features=512, bias=True)
        (query_project): Linear(in_features=512, out_features=512, bias=True)
        (value_project): Linear(in_features=512, out_features=512, bias=True)
        (dropout): Dropout(p=0.2, inplace=False)
        (softmax): Softmax(dim=-1)
        (output_layer): Linear(in_features=512, out_features=512, bias=True)
      )
      (feed_forward): PositionwiseFeedForward(
        (layer_norm): LayerNorm((512,), eps=1e-05, elementwise_affine=True)
        (pwff): Sequential(
          (0): Linear(in_features=512, out_features=2048, bias=True)
          (1): ReLU()
          (2): Dropout(p=0.2, inplace=False)
          (3): Linear(in_features=2048, out_features=512, bias=True)
          (4): Dropout(p=0.2, inplace=False)
        )
      )
      (dropout): Dropout(p=0.2, inplace=False)
      (layer_norm): LayerNorm((512,), eps=1e-05, elementwise_affine=True)
      (layer_norm2): LayerNorm((512,), eps=1e-05, elementwise_affine=True)
    )
    (4): TransformerDecoderLayer(
      (trg_trg_attention): MultiHeadedAttention(
        (key_project): Linear(in_features=512, out_features=512, bias=True)
        (query_project): Linear(in_features=512, out_features=512, bias=True)
        (value_project): Linear(in_features=512, out_features=512, bias=True)
        (dropout): Dropout(p=0.2, inplace=False)
        (softmax): Softmax(dim=-1)
        (output_layer): Linear(in_features=512, out_features=512, bias=True)
      )
      (src_trg_attention): MultiHeadedAttention(
        (key_project): Linear(in_features=512, out_features=512, bias=True)
        (query_project): Linear(in_features=512, out_features=512, bias=True)
        (value_project): Linear(in_features=512, out_features=512, bias=True)
        (dropout): Dropout(p=0.2, inplace=False)
        (softmax): Softmax(dim=-1)
        (output_layer): Linear(in_features=512, out_features=512, bias=True)
      )
      (feed_forward): PositionwiseFeedForward(
        (layer_norm): LayerNorm((512,), eps=1e-05, elementwise_affine=True)
        (pwff): Sequential(
          (0): Linear(in_features=512, out_features=2048, bias=True)
          (1): ReLU()
          (2): Dropout(p=0.2, inplace=False)
          (3): Linear(in_features=2048, out_features=512, bias=True)
          (4): Dropout(p=0.2, inplace=False)
        )
      )
      (dropout): Dropout(p=0.2, inplace=False)
      (layer_norm): LayerNorm((512,), eps=1e-05, elementwise_affine=True)
      (layer_norm2): LayerNorm((512,), eps=1e-05, elementwise_affine=True)
    )
    (5): TransformerDecoderLayer(
      (trg_trg_attention): MultiHeadedAttention(
        (key_project): Linear(in_features=512, out_features=512, bias=True)
        (query_project): Linear(in_features=512, out_features=512, bias=True)
        (value_project): Linear(in_features=512, out_features=512, bias=True)
        (dropout): Dropout(p=0.2, inplace=False)
        (softmax): Softmax(dim=-1)
        (output_layer): Linear(in_features=512, out_features=512, bias=True)
      )
      (src_trg_attention): MultiHeadedAttention(
        (key_project): Linear(in_features=512, out_features=512, bias=True)
        (query_project): Linear(in_features=512, out_features=512, bias=True)
        (value_project): Linear(in_features=512, out_features=512, bias=True)
        (dropout): Dropout(p=0.2, inplace=False)
        (softmax): Softmax(dim=-1)
        (output_layer): Linear(in_features=512, out_features=512, bias=True)
      )
      (feed_forward): PositionwiseFeedForward(
        (layer_norm): LayerNorm((512,), eps=1e-05, elementwise_affine=True)
        (pwff): Sequential(
          (0): Linear(in_features=512, out_features=2048, bias=True)
          (1): ReLU()
          (2): Dropout(p=0.2, inplace=False)
          (3): Linear(in_features=2048, out_features=512, bias=True)
          (4): Dropout(p=0.2, inplace=False)
        )
      )
      (dropout): Dropout(p=0.2, inplace=False)
      (layer_norm): LayerNorm((512,), eps=1e-05, elementwise_affine=True)
      (layer_norm2): LayerNorm((512,), eps=1e-05, elementwise_affine=True)
    )
  )
  (layer_norm): LayerNorm((512,), eps=1e-05, elementwise_affine=True)
),
	src_embed=Embeddings(
  (lut): Embedding(13367, 512, padding_idx=1)
),
	learnable_embed=LearnablePositionalEncoding(
  (learn_lut): Embedding(400, 512)
),
	position_embed=Embeddings(
  (lut): Embedding(13753, 512, padding_idx=1)
),
	trg_embed=Embeddings(
  (lut): Embedding(6991, 512, padding_idx=1)
),
	loss_function=XentLoss(
  (criterion): NLLLoss()
))
2023-03-08 13:45:31,775 - INFO - model - Total parameters number: 68544512
2023-03-08 13:45:31,776 - DEBUG - model - Trainable parameters(name): transformer_encoder.layers.0.layer_norm.weight               [512]
2023-03-08 13:45:31,776 - DEBUG - model - Trainable parameters(name): transformer_encoder.layers.0.layer_norm.bias                 [512]
…
